AI_Train/Models/stgcn_fall_detection.pth (torch, 314934 bytes, 26 tensors)

conv1.weight f4 [64, 3, 1, 1]
000000 d6 a2 e4 3e 07 52 f7 3e ac 01 00 be ad 34 0b 3f
       0.44655484 0.4830477 -0.12500638 0.5437725
000010 0e f3 ff bd cb 72 da 3d 1a b5 94 be 97 85 ba 3e
       -0.12497531 0.10666426 -0.2904442 0.36430046
000020 8f f1 ef 3e 49 19 de be e5 80 fe 3e f4 24 d5 3d
       0.46863982 -0.43378666 0.49707714 0.10407439
000030 e5 0e e4 3e e3 f4 9a 3d 6c 5b 86 3e 87 3b ce bd
       0.44542614 0.0756624 0.26241624 -0.10069948
000040 53 1f e7 3e 53 0b 9a 3d b8 08 91 be 27 01 00 3e
       0.45141086 0.07521691 -0.28326964 0.1250044
000050 2c ab 88 be a3 fe 79 bd 64 d0 64 be 1a 1f ca 3e
       -0.26693094 -0.061033856 -0.2234512 0.39476854
000060 f2 cc e8 be c9 f1 82 be d7 55 32 be a2 2d b4 be
       -0.4546886 -0.25575092 -0.17415558 -0.35191065
000070 65 40 39 3d 07 60 11 bf 02 ef 05 3f 74 05 fe be
       0.045227427 -0.5678715 0.5231782 -0.49613535
000080 bb 72 e0 3e b8 c2 bb 3d c3 65 3d be ea da b8 3e
       0.43837532 0.09167999 -0.1849585 0.36104518
000090 5c ec b2 3d a3 2c f5 3e 60 54 4f 3d 7b 61 50 be
       0.08736488 0.47885618 0.050617576 -0.20349686
0000a0 20 38 1f 3e f1 46 13 be 23 c3 85 3e 6c 32 0c 3f
       0.15548754 -0.14382531 0.2612544 0.5476444
0000b0 ac d8 98 3e b2 67 84 be 2c 63 ae 3e 93 f1 ac 3d
       0.29852808 -0.25860363 0.34060037 0.08444514
0000c0 23 1d 8f 3e 23 43 bc be fd 26 0f bf 95 bb 5e be
       0.27951917 -0.3676997 -0.55918866 -0.21751244
0000d0 c7 42 e8 be c5 8c ef 3e 5e 6d 24 3e 94 a8 77 3e
       -0.45363447 0.46787086 0.16057345 0.24185401
0000e0 6b 07 3c 3e da ad 92 3c da 37 e4 3e 99 4c d5 be
       0.18362205 0.017905165 0.4457386 -0.41660002
0000f0 1b 82 63 3d a0 9a c8 be 3e f3 37 3e 0e 57 4e be
       0.055544 -0.3918047 0.17963883 -0.20150396
000100 db c4 40 3e 76 b0 be bd c1 b3 f6 3e 09 ba b0 be
       0.18825094 -0.09311001 0.48184016 -0.34516934
000110 7e c8 ac be ee 6a b5 be e1 6d 03 3f b6 c4 45 3e
       -0.33746713 -0.35433143 0.51339537 0.1931332
000120 19 c1 0a 3f 99 c1 fd be 3a 1c 10 bf a8 f9 ec be
       0.54200894 -0.49561766 -0.5629307 -0.46284223
000130 3c ba c8 be 75 17 66 3e fc f6 47 3e 25 24 fa 3e
       -0.39204586 0.22469886 0.19527811 0.488557
000140 ce 14 96 be 8f 33 c9 be e2 af ab 3e a7 11 50 be
       -0.29312748 -0.3929715 0.33532625 -0.20319234
000150 5b aa b2 3e 29 c5 e3 bd e5 4b af 3e 21 ba ea be
       0.34895596 -0.1112159 0.3423759 -0.4584513
000160 81 c7 98 be b2 d2 29 3e 4b bf 01 3e d3 e8 1b be
       -0.2983971 0.1658428 0.12670629 -0.15225534
000170 b5 81 ad 3e 25 df d1 3e 8b 21 d8 be 8f b5 96 be
       0.3388802 0.40990558 -0.4221309 -0.29435393
000180 50 00 0b 3f 62 90 53 be 2f 96 3d be 1f 01 12 bf
       0.5429735 -0.20660546 -0.18514322 -0.5703296
000190 94 bd a7 be 22 da 11 3e a4 9f 9a bd 84 e2 d6 be
       -0.32761824 0.14243367 -0.0754998 -0.41969693
0001a0 63 50 91 3c 7c 27 cf be 12 d4 f1 be 08 f4 a6 be
       0.017738527 -0.40459812 -0.4723211 -0.32608056
0001b0 26 95 fd be 62 3d c2 be 8e 3a 12 3f c4 99 11 3e
       -0.49527854 -0.37937456 0.571206 0.14218813
0001c0 44 b4 35 3e 1d 89 07 bf 56 f7 cd be ec 34 36 be
       0.17744547 -0.52943593 -0.40227765 -0.17793626
0001d0 fb d8 98 3d 4f eb 00 bf 7a 20 89 be ec 00 ad be
       0.07463261 -0.5035905 -0.2678259 -0.33789766
0001e0 d2 77 31 3a 3f 49 62 be 44 10 14 bd 75 62 c9 be
       0.0006769869 -0.22098254 -0.036148325 -0.3933293
0001f0 6a ff ce be 66 ee a9 be 5a 77 3c be e9 c0 e4 be
       -0.4042924 -0.33189696 -0.18404904 -0.4467843
000200 90 4a fd 3e 4b fa ce bd 2a c9 02 3f 78 26 2c 3e
       0.4947095 -0.10106333 0.510882 0.1681155
000210 0a 43 04 bf 94 38 c0 3e a8 b7 28 be 0f d0 6c be
       -0.51664793 0.37543166 -0.1647631 -0.23126243
000220 d1 e3 f4 be 65 b8 12 bf 0b b9 2c 3e 6b 64 fa bd
       -0.4783006 -0.57312614 0.16867463 -0.122261845
000230 90 e0 68 3e 26 fc e5 be f6 f5 e2 3e 70 a0 dc be
       0.22741914 -0.44918936 0.44328278 -0.43091154
000240 57 6b d6 bd 98 f3 14 3e 78 7d 89 3e 70 54 fa 3e
       -0.10469692 0.14546049 0.26853538 0.48892546
000250 15 29 06 3f 8f f3 e5 be 6e ae 10 3e ae 9d 82 be
       0.52406436 -0.44912383 0.1412904 -0.25510925
000260 74 af 7a bd 92 49 e7 be de 88 06 3f 53 5f d5 be
       -0.06120248 -0.45173317 0.5255259 -0.4167429
000270 5e 8a 9d 3e a1 7f 5d 3e 08 a0 36 3e 12 79 a5 be
       0.30769628 0.21630718 0.17834485 -0.32318932
000280 24 95 04 3f 95 56 fe 3d 32 2b 95 3d 2d 78 06 bf
       0.5179007 0.12418858 0.072836295 -0.52527124
000290 0a 04 68 3e d1 5e a3 bd a1 32 88 be 22 d9 fd 3e
       0.22657791 -0.07977069 -0.26601127 0.49579722
0002a0 f9 b7 f2 3d bb 58 a6 be 28 20 95 be 48 95 89 bd
       0.11851496 -0.3248957 -0.29126096 -0.06717926
0002b0 e6 cc a6 3e 4b 34 10 be b3 30 af be 31 9a 3e be
       0.325782 -0.14082448 -0.34216842 -0.18613507
0002c0 26 0b df be 6b c9 55 3e 0b 80 ec 3e 25 94 07 bf
       -0.43563193 0.20877616 0.4619144 -0.52960426
0002d0 ac 8f 10 3e ed bf 94 3e ec c5 e0 3d bb ce 5a be
       0.14117306 0.29052678 0.109752506 -0.21367924
0002e0 3a 9d a3 3e 6f a1 91 3e 53 be 5f 3e 3a bf 9b bd
       0.31955892 0.28443477 0.21849947 -0.07604833
0002f0 cd 4c 30 be 46 aa 4e 3d e3 b3 f9 bd b6 6e 1d be
       -0.17216797 0.050455354 -0.12192514 -0.15374264

conv1.bias f4 [64]
000000 d5 a7 bb 3e 6d ac fc 3e e7 42 5e bd 80 0e 09 be
       0.36651483 0.493503 -0.05426302 -0.13384438
000010 e5 08 50 3c 2e 25 0e bd 30 da 05 3e 81 d5 24 3e
       0.012697433 -0.034703426 0.13071513 0.1609707
000020 f6 6d 07 bf 13 58 59 be 57 90 fe 3e 51 4f 60 3e
       -0.5290216 -0.21225004 0.49719498 0.21905257
000030 0a 7d 15 bd 50 1f b4 be 16 34 ac be 99 08 05 bf
       -0.0364962 -0.3518014 -0.33633488 -0.51966244
000040 0b 83 3e be 61 91 3e 3e 90 63 c4 3e 45 bd 76 3e
       -0.18604676 0.18610145 0.3835721 0.24095638
000050 54 91 05 bf b6 ba a8 be 97 42 b1 bd 30 05 0c 3f
       -0.5217488 -0.3295495 -0.08655279 0.54695415
000060 bc 58 b9 3d 3f 61 19 be a3 a3 6d 3e 30 6d 65 be
       0.09050128 -0.14978503 0.23206954 -0.22404933
000070 a2 19 bc be 1c 81 d3 3e 04 f9 87 be 98 98 d3 bd
       -0.36738306 0.4130944 -0.2655717 -0.10331839
000080 59 e0 19 bf a4 b2 c1 3e 04 38 d9 3e af 18 67 3e
       -0.6010795 0.37831604 0.4242555 0.2256801
000090 8c 7b cc be 25 b4 13 bf c6 f6 e5 be d3 66 dc 3e
       -0.3993801 -0.57696754 -0.44914836 0.430472
0000a0 27 ce 89 3e 9c e1 ef 3e 41 74 99 3e a4 ff 14 3e
       0.26915094 0.46851814 0.29971507 0.14550644
0000b0 80 b4 23 b7 c4 40 e1 be 5a 56 f6 be c7 94 08 bf
       -9.757583e-06 -0.43994725 -0.48112756 -0.53352016
0000c0 10 57 64 3e 78 a3 8f be a0 2e e1 bd 17 58 a9 be
       0.22298837 -0.28054404 -0.10995221 -0.3307502
0000d0 5c 06 a9 bd 64 76 c9 be df c0 b8 be a8 75 50 3e
       -0.08253166 -0.39348137 -0.3608465 0.20357382
0000e0 55 98 23 be ca e6 b8 3e 3f a9 36 be 60 bf d7 be
       -0.15976079 0.36113578 -0.17838 -0.42138195
0000f0 f4 8d c0 bd 9c c9 8c be 88 74 33 be bd af 09 bf
       -0.094020754 -0.27497566 -0.17524922 -0.5378378

conv2.weight f4 [64, 64, 3, 1]
000000 bf 39 78 3d 2a 4e f1 bc 53 8b 71 3d f9 ae 57 3d
       0.060601946 -0.029456217 0.05897076 0.0526571
000010 3d 3d 98 3d 44 b9 14 bd 20 3a 52 3d d3 66 03 bd
       0.07433555 -0.036309496 0.051324964 -0.032080483
000020 84 5f cb 3c 02 92 81 3d 0f 25 13 bc b6 84 7d bb
       0.024825819 0.06326677 -0.008981003 -0.0038683838
000030 2c cb ae bb 17 3f 3e bd 59 ed 36 3d 80 15 8e bd
       -0.0053342786 -0.046446886 0.044659946 -0.069376945
000040 16 79 58 3d a7 cd 69 3d 81 83 93 3d e4 d1 b0 bc
       0.05284985 0.05708089 0.07202817 -0.021584459
000050 ec 41 83 bd 5a 26 7a 3c 2c f5 28 3d aa 54 9c bd
       -0.06409058 0.015267933 0.04124944 -0.07633336
000060 be 2b 55 bc c0 18 ec bc 72 86 26 bb ef 30 fa bc
       -0.013010917 -0.028820395 -0.0025409725 -0.030540911
000070 d2 4e e1 bc dc e6 c3 bc b7 8d 87 bd b6 ab 83 3d
       -0.027503405 -0.023913793 -0.06618827 0.06429236
000080 6a 19 6b 3d 9a 57 27 bc ef f8 a1 bb 60 db 03 bd
       0.057397284 -0.010213757 -0.0049430053 -0.032191634
000090 e6 ec 66 bd 30 13 64 bd b7 5c 16 3d 51 80 3d bd
       -0.056378268 -0.05568236 0.036709514 -0.04626495
0000a0 2a 06 80 bd 2e d4 b2 bc 3a c4 8b bc 88 44 48 bc
       -0.06251176 -0.02182969 -0.017061342 -0.01222337
0000b0 3d 83 1c 3c 63 11 99 bc 70 fd be bc cc b5 18 bd
       0.009552774 -0.018685048 -0.023314208 -0.03728275
0000c0 46 fc 65 bd de 44 82 3d 82 fd 00 bd c0 e6 83 3c
       -0.05614879 0.063607916 -0.031491764 0.016101241
0000d0 31 4a ce bc e2 d5 6e ba 92 06 99 3d 1f 66 35 3d
       -0.025181862 -0.00091108505 0.07471956 0.044286843
0000e0 51 53 62 bd 69 01 10 3d 52 38 87 3d 44 28 9d 3c
       -0.055255238 0.035157595 0.06602539 0.01918424
0000f0 2d fc 27 3d 7a df 8b 3d 55 99 c0 bc 6b 94 84 bb
       0.041011978 0.06829734 -0.023510614 -0.004046013
000100 0a ef 9e bd 50 03 39 bd 0e ee 62 3d 5b 09 2a 3d
       -0.07760437 -0.045169175 0.055402808 0.04151283
000110 8b c9 44 bd 58 0c 77 bd af 3e 43 bd 08 5e 97 bd
       -0.04804377 -0.060314506 -0.0476672 -0.07390982
000120 d4 ae 5a bd 94 12 5f bc 78 a3 3c 3d 7d f2 77 3a
       -0.053389385 -0.013615269 0.046054333 0.0009458436
000130 8d 95 77 bd d6 62 8f bd ee 5a 32 3d 0f 94 4e bd
       -0.060445357 -0.07001273 0.04354375 -0.05043417
000140 68 6c 24 bb e4 5a 97 3c a2 66 6c bd 10 10 0e bd
       -0.002508903 0.018475957 -0.057715066 -0.034683287
000150 70 52 0c 3a ff 39 05 bc b6 19 09 bd ae 15 9d bd
       0.00053528603 -0.008131503 -0.033471785 -0.07670151
000160 41 d9 83 bd 84 cb 51 bd 39 a1 92 3d 29 8f fc bc
       -0.06437922 -0.05121948 0.07159657 -0.030829983
000170 23 f2 4d bd 00 16 8d 3c 4a 6e c7 3c fe 64 0d 3d
       -0.050279748 0.017222404 0.024344582 0.03452014
000180 9b d5 6f 3d 09 c7 40 3d a6 c7 8c bd 65 08 b1 bb
       0.05855332 0.047064815 -0.068740174 -0.005402612
000190 eb 12 22 3d 52 b5 92 bc cd 48 43 bd 60 1e 98 3d
       0.039568823 -0.017908726 -0.04767685 0.074276686
0001a0 b4 44 07 bd 0f 3c 23 bd d7 a3 59 bd 52 cf 19 3b
       -0.033024505 -0.0398522 -0.053134765 0.002346952
0001b0 56 a2 e5 3c 96 5f 71 3c 2c c6 02 3c 87 d1 39 bd
       0.02803151 0.014732262 0.007981818 -0.045365836
0001c0 a1 86 84 bd 35 85 e4 3b 70 84 57 3d 45 b8 17 3d
       -0.06470991 0.0069738873 0.052616537 0.037040967
0001d0 49 3d 5a bd da ac 06 bb 27 47 26 bd e3 e3 f4 bc
       -0.053281102 -0.0020549805 -0.0405952 -0.029893821
0001e0 e9 86 88 3b 49 c2 39 3d 56 8f 50 3d 89 60 80 bd
       0.004166473 0.0453513 0.050917946 -0.062684126
0001f0 17 c6 78 3d 75 06 4d bd 1a 52 c6 3c 9f fb 79 3d
       0.06073579 -0.050054986 0.024209071 0.06103098
000200 7f d2 b9 bb dd 98 8a 3d 7d 00 60 bd ae 43 cf bc
       -0.005670845 0.067674376 -0.054687966 -0.025300827
000210 03 c8 88 3c bb 4f 4e bd 56 9c 38 bd d2 8a cf bc
       0.016696936 -0.050369006 -0.04507097 -0.02533475
000220 b5 b1 6f 3d 76 e1 0e 3d f3 76 d9 3c 40 ad 0e bd
       0.058519084 0.034882985 0.026545977 -0.034833193
000230 84 29 73 bd dd 21 75 3b fd 21 ee 3b ef b6 43 bd
       -0.059365764 0.0037404217 0.0072672353 -0.04778188
000240 45 e0 a6 bc 26 8e 50 3d f9 fe 83 3b b0 c0 7b 3c
       -0.020370612 0.050916813 0.004028198 0.0153657645
000250 8c 6e 21 bc 86 28 53 bd e3 a6 98 bd 5e 4c f1 bc
       -0.009853017 -0.051552318 -0.07453706 -0.02945536
000260 b4 db 32 bd ee f8 8a 3c 9d 36 19 bd 6b 3a 36 bd
       -0.043666556 0.016964402 -0.0374056 -0.044489305
000270 b1 30 a3 3d 23 e9 21 3d ef 96 7e 3d ae ba 18 bd
       0.079682715 0.039528977 0.06215566 -0.037287407
000280 0c c6 d9 bc 86 56 cb 3c 19 1a 60 bd 11 9b 49 bd
       -0.026583694 0.024821531 -0.05471239 -0.04922015
000290 34 23 7b bc 1d 07 de bc ef 10 57 bd 6c 21 1e 3d
       -0.015328217 -0.027103001 -0.052506384 0.038606092
0002a0 36 08 72 3d 56 60 8d 3c 89 c6 8c bc b2 a4 8c bd
       0.05908986 0.01725785 -0.017184513 -0.06867351
0002b0 47 42 0e bd a6 a0 00 3c cf 50 2a 3d 43 5a e6 ba
       -0.034731176 0.007850802 0.04158097 -0.0017574508
0002c0 b6 a6 d0 bc cb 99 4a 3d fe 4d 62 bd f5 64 55 3d
       -0.025470119 0.049463075 -0.05525016 0.052098233
0002d0 5d 85 9d bc 93 85 75 3c ce 85 9c bb e0 b6 0b 3c
       -0.019228632 0.01498546 -0.004776693 0.0085274875
0002e0 fc c8 9c bc 45 f5 50 3d 0e 79 1f 3b 93 b5 78 3d
       -0.019138806 0.051015157 0.0024333629 0.060720038
0002f0 aa 5e 91 3d e6 98 05 bd e1 b1 46 bd 9f ba 60 3d
       0.07098134 -0.03261652 -0.048509482 0.054865476
000300 45 13 61 3d f6 05 71 bd de ee da bb 99 38 93 bd
       0.054950017 -0.058843575 -0.006681307 -0.071885295
000310 3a 09 83 bd a0 f8 dd 3b 53 1b 97 3c 7c e8 ad 3c
       -0.06398244 0.006774023 0.018445646 0.021229021
000320 94 bc 36 bc f4 52 84 3d eb 80 a1 3c 68 a3 f9 bc
       -0.011153359 0.064611346 0.019714793 -0.030473426
000330 86 62 74 bb 06 49 bc 3c c0 15 0a 3d 34 65 40 bd
       -0.003729017 0.022984039 0.03371215 -0.046971515
000340 53 2e 3b 3d 70 c8 64 bc d6 ac 84 bd fe 21 4f bd
       0.045698475 -0.013963804 -0.06478278 -0.050569527
000350 61 4d 79 3d 0a cd 5e 3d df 57 62 3d 2d c4 f3 3c
       0.06086481 0.05439476 0.05525958 0.02975663
000360 d7 10 1e 3d 23 26 94 bc 4d ae 43 bd 0b 9b f1 3c
       0.03859028 -0.018084591 -0.047773648 0.029492876
000370 18 7f 38 bd b6 3c 59 bd 8d bc e3 bc cd 48 8f 3b
       -0.04504308 -0.053036414 -0.027799869 0.004372692
000380 fb 77 ad 3c fe 7a 0d bd db 6a 45 bd 7c cc 17 ba
       0.021175375 -0.034541123 -0.04819761 -0.00057906634
000390 57 96 0b bd e2 64 c6 bc b5 72 85 3d 5f 90 56 bc
       -0.034078922 -0.024218027 0.06516019 -0.013095944
0003a0 d1 ab 5f 3d f5 94 78 3d 1d 50 c1 3c 76 a6 20 3d
       0.054607216 0.06068893 0.023597771 0.03922125
0003b0 12 fd 11 3d 76 f7 3b b9 6c 47 af 3b 79 d8 70 3c
       0.035641737 -0.00017925896 0.0053490903 0.014700049
0003c0 ac b9 a8 3c a4 90 96 3d 51 5c 47 bc b2 61 14 bd
       0.020596348 0.07351807 -0.012168006 -0.036225982
0003d0 fe 25 e7 bc 2c 6f 53 bd 55 4e 6d 3c 32 4d 88 3d
       -0.028216358 -0.051619694 0.014484008 0.06655349
0003e0 c1 07 98 3d e0 08 05 3d 79 87 7d bd 90 e9 3b bd
       0.07423354 0.032479167 -0.061896775 -0.04587704
0003f0 74 a9 94 bc 29 3a d9 bc e4 52 4c bc 12 06 82 bd
       -0.018147208 -0.02651699 -0.012470935 -0.06348814

conv2.bias f4 [64]
000000 c3 89 35 3d 47 e4 74 3d 1b fc 81 3c d5 c2 74 3d
       0.044320833 0.059788015 0.015867284 0.05975612
000010 ce 6e 02 bd 47 6d 2f bd 86 18 75 bd 36 54 e1 bb
       -0.031843953 -0.042828824 -0.05983784 -0.006876494
000020 4a a5 eb bb 2a f5 2d bd 03 60 de bc a5 37 d8 bc
       -0.007191335 -0.042470135 -0.027145391 -0.02639372
000030 43 a0 8d 3d f8 ef e1 bb 78 f6 79 3d a3 1e 93 3b
       0.06915333 -0.0068950616 0.061026067 0.004489736
000040 d8 d3 ae 3c 10 fa 1b 3d 44 57 8c bd d7 fe 09 bd
       0.02134125 0.038080275 -0.06852582 -0.0336903
000050 26 99 66 bd 3c 81 95 3d 2d 74 ee 3c cf 5c 01 bd
       -0.056298397 0.0730004 0.029108131 -0.03158265
000060 1d b7 68 bd 20 3b 2b 3d 88 ab 9d 3c 0a 5d 16 bd
       -0.056815255 0.041804433 0.019246832 -0.036709823
000070 65 f9 56 bd 64 83 3c bd 10 e0 92 3c 35 15 7e bd
       -0.052483935 -0.04602374 0.017929107 -0.062031943
000080 a1 4e 09 bc 32 0c 32 3d a4 6b 19 3d c8 85 35 3b
       -0.008380563 0.04346866 0.03745617 0.0027698148
000090 2b da dd 3b 42 0a 91 3c 8f 0e f6 3c 76 33 6e 3d
       0.0067703924 0.017705087 0.030036239 0.058154546
0000a0 52 b0 b6 3c d1 93 2b 3d c5 15 43 3d 5b 24 6c bd
       0.022300873 0.041889016 0.047628183 -0.05765186
0000b0 cc 68 19 bd 35 d7 1a 3d db d4 73 3c 7f 2c 2f bd
       -0.037453458 0.037802894 0.014882292 -0.042767044
0000c0 38 c9 c3 3c 6a 9c 85 bd 9d 78 dd bc 84 c2 17 3d
       0.02389966 -0.06523974 -0.027035052 0.03705074
0000d0 72 97 ab bb d7 48 2f bd 18 72 15 3d df 89 22 3c
       -0.0052365595 -0.042794075 0.03648576 0.009920566
0000e0 ab a9 c5 bb 65 14 78 bd 1e 06 ca bc fb 0c 21 3c
       -0.006032189 -0.060566325 -0.02466112 0.009829755
0000f0 c4 41 0d bd b2 76 87 3c 04 1d 49 bd 31 dc 72 3d
       -0.034486547 0.01653609 -0.049099937 0.059292022

conv3.weight f4 [128, 64, 1, 1]
000000 45 63 d4 3d 2f a1 93 3d e2 3d bb bc ed 22 fc bd
       0.10370497 0.07208478 -0.022856656 -0.12311349
000010 fa 5b 58 bd ba 2b 15 bc a4 46 f5 bd b5 77 fb 3d
       -0.05282209 -0.0091046635 -0.11976364 0.12278692
000020 6d 5a 20 3d 1e 21 c1 3d 90 bf bc bd 08 eb 49 bd
       0.039148737 0.09430145 -0.09216225 -0.04929641
000030 25 3f fe 3c 7b d1 31 bc 78 7d a3 bd c6 8e c0 3d
       0.031035969 -0.010853167 -0.07982916 0.09402232
000040 a0 c9 7a 3d b5 78 48 bc f7 47 08 3e 6f 18 09 be
       0.06122744 -0.01223581 0.13308702 -0.13388227
000050 c8 42 cb bd 7b 86 c8 3c 85 b3 e1 3d 0c ee 76 3d
       -0.09924847 0.024478188 0.11020569 0.060285613
000060 3a 06 9a bd 40 26 a3 3d f3 fa 71 3d 39 ab c2 3a
       -0.07520719 0.0796628 0.059077214 0.0014852054
000070 de 0f 9c 3d b4 21 aa 3c 47 82 53 3b 2f b2 15 bd
       0.07620214 0.020768024 0.0032273696 -0.036546882
000080 89 40 90 bd 15 cb 9b bd bc 66 b4 bc 9c 71 b0 bd
       -0.07043559 -0.07607094 -0.022021644 -0.08615419
000090 e9 6e 3f 3d eb ec 2f 3d e1 d0 b6 bd 93 7a 9b bd
       0.04673663 0.042950552 -0.08926559 -0.075917386
0000a0 0d 85 0b 3e 82 41 75 bd 23 f9 51 3b ea db 91 bd
       0.13624974 -0.059876926 0.0032039366 -0.071220234
0000b0 88 3e 0e bd b0 7a 6d 3d 0a 79 01 3d 48 5b 8b 3d
       -0.034727603 0.057978332 0.031609572 0.0680452
0000c0 b9 fa ec ba 3e be cb bd 1d ff 75 bc c7 30 a0 3d
       -0.0018080092 -0.09948395 -0.015014437 0.078218035
0000d0 22 46 13 3d c3 57 6b 3c 85 f3 0c 3c 0c 96 d6 3d
       0.035955556 0.014364186 0.008602981 0.10477838
0000e0 c8 8e 77 3d 9f 42 d6 bc 49 9b 9b bd 4c c9 d7 3d
       0.0604389 -0.026154814 -0.07597978 0.10536441
0000f0 95 a5 8b bd a9 c3 af bd 51 13 50 3d fe 0b 82 bd
       -0.06818692 -0.08582241 0.05079967 -0.063499436
000100 95 c5 d1 bd 51 89 cf bd b0 9e 18 3d 0b c0 a5 bd
       -0.10242764 -0.10133613 0.03726071 -0.0809327
000110 83 27 f1 3d d6 49 ee bb 06 21 2f bd 1f 7a 64 bd
       0.117751144 -0.0072719855 -0.042756103 -0.055780526
000120 09 17 63 bd 15 08 c0 3d 53 04 91 bd 5c 36 df bd
       -0.05544189 0.093765415 -0.07080903 -0.1089904
000130 f6 47 05 3d 11 33 0f 3d fd 35 04 be 73 49 56 bd
       0.03253933 0.03496081 -0.1291122 -0.05231614
000140 ed 02 e1 3d e0 d4 4c bd bf 81 9d 3d 35 d6 59 bd
       0.10986886 -0.0500077 0.07690763 -0.0531828
000150 32 0a e1 bd 99 35 fb bd dc d4 e0 3d ce ba fc 3c
       -0.10988273 -0.12266082 0.109781 0.030850794
000160 f0 e9 11 3d ba a0 35 3d df a6 9c 3d 32 37 93 3d
       0.03562349 0.044342734 0.07649016 0.07188262
000170 1a 91 cb 3d 20 64 c6 3d 98 90 f5 3c 0b db 09 3d
       0.09939785 0.09687066 0.029976174 0.03365616
000180 ed 13 cf 3c ea 5e e3 bd ac 81 29 3d 1a 48 12 3d
       0.025278056 -0.11102088 0.04138343 0.035713293
000190 4d 15 44 3d 08 dc 28 bd f4 a7 d1 3d bc d6 22 3d
       0.047871877 -0.041225463 0.10237113 0.039755568
0001a0 b7 41 69 bc c5 a2 16 3c c3 7f 4e bd 2b ca df bc
       -0.014236859 0.009194081 -0.05041481 -0.02731808
0001b0 57 4b cf 3d 3c 7b 2f 3d ec 54 c3 bc 4f a8 7b 3c
       0.10121792 0.042842135 -0.023844205 0.015359952
0001c0 ea 89 19 3d da 40 83 bd 4d 5d 96 bd ef 83 d2 3d
       0.03748504 -0.06408854 -0.073420145 0.102790706
0001d0 75 dc 01 ba 06 92 39 3d d5 8f 5b bd 3a 99 c9 bd
       -0.000495381 0.045305274 -0.053603966 -0.09843679
0001e0 36 d2 03 3d 51 74 b7 3d 77 fd 02 be de 4d f6 bd
       0.032182895 0.089577325 -0.12792002 -0.12026571
0001f0 79 cc 08 bd ed 24 a9 3d 9c ac be bd e8 b9 d8 3d
       -0.033398125 0.08258996 -0.093102664 0.10582334
000200 b5 bb ef 3d 5b 21 cd bc 05 18 9a 3b 50 da 33 3b
       0.11705724 -0.02504032 0.0047025704 0.0027443357
000210 fe 51 fa 3d 4a 64 77 3c da 93 28 3d dd af 25 bd
       0.1222267 0.015099594 0.041156627 -0.04045092
000220 ca fc 47 b9 ce 60 70 bd 82 57 7e 39 d2 64 7b bc
       -0.0001907229 -0.05868607 0.00024255927 -0.015343862
000230 74 a7 c8 3c bf 9e cd 3c f2 c6 d7 bd c1 65 c2 3d
       0.02449391 0.02510011 -0.10535993 0.09492064
000240 46 91 bb 3d bc 5d b3 3d 0f f7 e7 3d 17 be 11 3d
       0.09158568 0.08758113 0.113264196 0.035581674
000250 67 6b 89 3d db 99 92 3d 8b f6 9d 3d e7 38 9e bd
       0.067099385 0.07158252 0.0771304 -0.07725697
000260 7c 0a 89 3d 6d 4c 1b bc 05 7f 85 3d fc b7 33 3d
       0.06691453 -0.009478671 0.06518368 0.043876633
000270 17 c5 c1 bd b2 82 85 bd 9e 68 ba bd 6b 3a 52 bc
       -0.0946142 -0.06519069 -0.091019854 -0.012831311
000280 00 c6 51 3d 98 47 f2 3c 6c f3 bd 3d 1e a6 da bd
       0.05121422 0.029575154 0.09274945 -0.106762156
000290 1e 30 07 3d ac 15 ce 3d 0a 76 ce bd f3 f3 b9 bd
       0.033004873 0.10062727 -0.10081108 -0.09079733
0002a0 53 62 c5 3c e4 0a 30 bd 8a d1 31 3d 12 b7 8d bd
       0.024094736 -0.042979136 0.043412723 -0.069196835
0002b0 e2 3c d8 3c f6 53 cc bd 76 84 e1 3d 29 e6 97 bd
       0.026396219 -0.09976952 0.11011593 -0.074169464
0002c0 e6 41 ca bd 6d e3 73 bd 27 9a d6 3a 21 ad d6 3d
       -0.098758504 -0.059543062 0.0016372845 0.104822405
0002d0 5c 60 a3 3c 06 4f 84 bc 8d f5 bd bd 67 c6 5d 3d
       0.019943409 -0.016150963 -0.09275351 0.05414429
0002e0 fe 00 12 3c ba 05 d8 bc 28 8c 36 bd 0e 03 15 3d
       0.008911369 -0.026369918 -0.044567257 0.036379866
0002f0 39 fd b2 3d 6d b1 46 bd 4f ab e2 bc c6 1f 96 3d
       0.08739705 -0.04850905 -0.027669577 0.07330279
000300 c3 34 b4 bd e5 9b 4b 3b 89 88 b7 3d b8 3c c0 3d
       -0.08799126 0.0031068262 0.08961589 0.09386581
000310 45 61 e0 bd 33 3a 40 bd 8d 69 b5 3c f4 d1 8c 3d
       -0.10956053 -0.046930503 0.022145057 0.06875983
000320 2f 44 a3 bd 09 bd b9 bd f9 cc 83 bc 34 6e 3e 3d
       -0.07971989 -0.09069259 -0.01608895 0.046491817
000330 0c 6a 9c bd 30 27 fb bd b5 41 fb bb dc eb ba 3d
       -0.07637414 -0.12263334 -0.007667745 0.09127018
000340 e9 5f fe bd 4a 00 05 3d a9 51 82 3d 30 ee 9e 3b
       -0.12420637 0.03247098 0.06363232 0.0048501715
000350 3b d4 7c bd 0e e2 96 bd 40 09 94 bd fd 79 7e 3c
       -0.061725836 -0.07367335 -0.07228327 0.015532014
000360 79 fb 7a bd df 58 4d 3c e4 90 ec bb d8 24 9b bd
       -0.06127498 0.012533396 -0.0072194207 -0.07575387
000370 15 8e f6 3d ab 92 ec b9 7a 6d 25 3d c5 b0 96 3d
       0.12038819 -0.00045122704 0.040387608 0.07357935
000380 b6 d9 0e 3d 04 28 82 bd 1a 9b 68 bc 6a e0 60 bd
       0.034875594 -0.063552886 -0.014197135 -0.054901518
000390 ad 47 06 be 18 3a be bd bf fd 63 bd 45 00 07 3e
       -0.1311328 -0.09288424 -0.055661913 0.13183697
0003a0 c7 16 0b be 29 34 b3 bd c0 7d 0a be d1 e8 ef bd
       -0.13582908 -0.08750183 -0.13524532 -0.11714328
0003b0 cc 0e cc 3d b1 d5 e1 bd 02 02 d1 bd 34 56 7a bd
       0.0996376 -0.110270865 -0.10205461 -0.061117366
0003c0 f7 9c 14 3d 1e 69 01 bd 58 78 88 bd 2d ab ba 3d
       0.036282506 -0.03159439 -0.06663579 0.091146804
0003d0 83 b4 1d 3c bb 95 a5 bd d9 66 ef bc b2 da 9a 3d
       0.009625557 -0.080851994 -0.029223846 0.07561244
0003e0 ce fb 82 3d cd 3a 9e bd f8 b7 97 bd 81 1d a3 bd
       0.06395684 -0.07726059 -0.07408136 -0.07964612
0003f0 70 73 01 3d 22 86 d3 bd cc 3c d4 3d d2 c5 25 3c
       0.03160423 -0.10328318 0.103631586 0.010117965

conv3.bias f4 [128]
000000 b7 4c f9 3d 2b 2e bb bd e3 68 21 bd 5a 01 a3 3d
       0.12172835 -0.09139665 -0.03940667 0.07959242
000010 a3 04 2e 3d dd 23 7b bd 02 4c d2 bd 0a 00 be bd
       0.04248489 -0.0613135 -0.102684036 -0.09277351
000020 11 87 d8 bd 7f 97 8f bd d5 af 9b bd 82 df 16 bd
       -0.10572637 -0.070113175 -0.07601897 -0.036834247
000030 a1 5f de 3d b0 ae 08 bd 1a b8 9c bd 65 c9 79 3d
       0.108580835 -0.03336972 -0.07652302 0.06098308
000040 16 a1 9d bd bb 85 7b bd 3e 89 aa bc 85 36 7b bc
       -0.0769674 -0.061406832 -0.020817395 -0.015332823
000050 19 07 9a bd 58 3a d0 bd 69 d2 f7 bd 58 69 42 bd
       -0.07520885 -0.10167378 -0.121006794 -0.047463745
000060 f7 c1 80 3d 84 f9 34 3c e9 ad cd 3d 24 7a b6 3c
       0.06286996 0.011045817 0.10042936 0.022275038
000070 c1 39 c1 bd ee 12 45 3c d8 fe 03 bd 57 57 92 3d
       -0.09434844 0.012028439 -0.03222546 0.07145565
000080 86 c1 17 3d 44 cf fb 3d 24 2b e4 bd 3b ab 68 bd
       0.037049793 0.12295392 -0.11141041 -0.056803923
000090 3f 83 d3 bd ed f2 15 3c bf a6 9f bd e2 48 53 bd
       -0.103277676 0.009152156 -0.07795476 -0.05158318
0000a0 b9 0a ef 3d 2d 0f 28 bd 0d ce 75 3d fd 9a a7 3d
       0.11671967 -0.041030098 0.06001096 0.081838585
0000b0 81 91 ba 3d 15 fc d1 3d d5 75 9f 3d bd 22 20 3c
       0.09109784 0.10253159 0.077861466 0.009773907
0000c0 59 59 d6 3d 56 82 f3 3d 6d 98 b1 bd de 67 d8 3c
       0.104662605 0.11890094 -0.08671651 0.026416715
0000d0 8d 26 ab 3d dd dc ab bd 6d 08 4e 3d 13 8d a4 3d
       0.08356962 -0.08391736 0.050301004 0.0803472
0000e0 a8 fa 2c 3b 97 c9 1a bd 2d 6a 61 bc 4c f3 d6 3d
       0.002639452 -0.037789907 -0.013758224 0.10495624
0000f0 57 90 c8 bd 77 cd 45 3d e1 9f 86 bd f8 b6 ae 3d
       -0.09793156 0.04829165 -0.06573463 0.08530992
000100 63 37 56 bd c1 7f dd 3c 3b 12 a4 3d 53 6d 83 bc
       -0.052298915 0.027038457 0.0801129 -0.01604334
000110 3f 00 95 bc 8f 36 ea 3d 0f ec f5 3d 70 61 8e 3d
       -0.018188594 0.114361875 0.12007915 0.069521785
000120 2e b7 aa 3b f9 9f 01 3b c4 cf a2 bd 92 86 aa 3d
       0.005209825 0.001977919 -0.079497844 0.083264485
000130 cd 1b 5c 3d d3 2a cd 3d 47 05 a2 bd 37 a3 fe 3c
       0.05373745 0.10017934 -0.07911163 0.031083686
000140 b8 ef c7 3c e4 e0 1a bd b6 34 2e bc 7d ff db 3c
       0.024406299 -0.03781213 -0.010632684 0.026855225
000150 44 16 00 bd 8f 7d ed 3d 30 74 e6 bd 1f 9b a7 bc
       -0.031271234 0.11596214 -0.1125263 -0.02045971
000160 92 6f 66 bd 33 97 c2 3d bc a0 3f bd 9e 96 c0 bc
       -0.056258745 0.09501495 -0.046784148 -0.02350932
000170 a2 21 de 3d 14 71 e1 bd b7 30 23 bd dc b8 da 3d
       0.10846259 -0.11007896 -0.03984138 0.106797904
000180 40 5d b1 3d fc 61 1c bd a9 fd b7 bc 42 b8 78 bd
       0.08660364 -0.038179383 -0.022459822 -0.060722597
000190 b1 2e d4 3c 88 8e 05 3d 26 6f a6 3d 8d 96 51 3d
       0.02590117 0.03260663 0.08126669 0.051168967
0001a0 5f a5 7a 3d ea c2 a8 bc 29 9f b6 bd 22 a6 8c 3d
       0.061192866 -0.020600755 -0.08917076 0.06867625
0001b0 06 69 55 bb a2 ce a9 bd 7b 73 41 3c 33 e9 00 3e
       -0.003256382 -0.08291365 0.011807318 0.12588958
0001c0 a7 e9 59 bc cc bb d7 bd 85 02 9a 3d 5f 93 c1 3d
       -0.013300336 -0.10533866 0.07520012 0.09451937
0001d0 a4 9f a0 bd ff 96 e2 bd ca ba b9 bd dd 9b 56 3d
       -0.07842949 -0.110639565 -0.0906883 0.052394737
0001e0 b1 a2 4b bd b5 d5 01 be 00 2c 0a bc f3 89 83 bd
       -0.0497157 -0.12679179 -0.008433342 -0.06422796
0001f0 8a ae 1e bd 5b 34 51 bd 21 69 24 bd 97 19 a1 bd
       -0.038740672 -0.05107532 -0.04013932 -0.07866209

conv4.weight f4 [128, 128, 3, 1]
000000 de 68 26 bc 77 70 12 bd 58 4c 69 bc 4e 21 f6 bc
       -0.010156838 -0.035751786 -0.014239393 -0.030045178
000010 72 a5 99 3b 6a df 13 3d 18 53 cc bc 5f 55 8f bc
       0.004688912 0.036101736 -0.024941966 -0.017496763
000020 c5 60 a0 bc dd 8c 99 bc 27 53 f7 bc b8 f4 bf 3c
       -0.019577393 -0.018743927 -0.030191017 0.02343212
000030 0a 94 41 bc bc 99 ab bb 5b 6e ae bc 2c 9b 3f bb
       -0.01181508 -0.0052368324 -0.021292856 -0.0029236777
000040 45 9d a7 3b 4d 72 46 3d c5 3b 51 3d 5d a4 83 bb
       0.0051151835 0.04844885 0.05108239 -0.0040173964
000050 dd 9b 14 3d c3 70 2f bd c1 5c 59 bc b5 81 61 bd
       0.036281455 -0.042832147 -0.013266743 -0.05505534
000060 e7 8e 5f 3c 43 ee 09 3d 7a 21 43 3d 2a 1f d4 3c
       0.01364491 0.03367449 0.047639348 0.025893766
000070 d8 47 07 3d d2 28 bb ba 20 c3 4c 3d a0 bc 23 bd
       0.0330275 -0.0014279133 0.049990773 -0.03997481
000080 11 40 01 bc 7e 7c 45 bc e5 18 f2 3c cc 6c 46 3b
       -0.00788881 -0.012053607 0.029552886 0.003027725
000090 06 e1 6f 3d 9e 3c a7 bc db 86 12 3d 3a 95 3f bd
       0.05856421 -0.020414647 0.03577314 -0.046773173
0000a0 94 9a 96 3b de 95 12 bd 48 45 2c bb 29 6e 9a 3c
       0.004596064 -0.035787456 -0.0026286412 0.018851357
0000b0 e6 17 88 3c 8e d3 8b 3d e7 a5 4f 3d 9a 3a f7 3b
       0.016612958 0.0682746 0.050695326 0.0075448276
0000c0 a9 02 fb 3c 28 b3 c7 3c 9c c4 ce 3a 08 73 ad bb
       0.030640917 0.02437742 0.0015775147 -0.005293254
0000d0 ce 2e 8e bc 56 fa d5 3c 1d e0 b0 bb 2e d5 54 3d
       -0.017356303 0.026120346 -0.00539781 0.051961116
0000e0 05 c9 f2 bc 81 02 b7 3c eb 84 bd bc 06 95 4b 3d
       -0.02963687 0.022340061 -0.02313467 0.049702667
0000f0 ea 1f 63 3c 90 b5 99 3c 78 a9 a8 3b 3c 7c f7 3b
       0.013862589 0.018763334 0.0051471554 0.0075526517
000100 3d 6e 7d ba 83 5c cc bb e2 bb 1d bd 29 ff 9e bb
       -0.0009667611 -0.006236614 -0.038509257 -0.004852195
000110 9a 9f 93 bc 0a db 55 3d 36 01 74 3d a1 21 95 bc
       -0.01802044 0.052210845 0.059571467 -0.018204512
000120 dd 7b 17 3b fa 3a 31 bd 0f 62 9b 3c 70 33 62 3d
       0.00231146 -0.043269135 0.018967656 0.055224836
000130 04 63 32 bc b6 39 a5 bc 31 43 33 bc fa 67 13 3d
       -0.010887865 -0.02016912 -0.010941313 0.03598783
000140 c6 df d9 3c d5 3d dc bc 8f 0d d3 39 df 38 37 bd
       0.026595961 -0.026884953 0.00040255158 -0.04473197
000150 59 10 7b 3d 3c 66 14 3d e9 8e ff bb 15 56 01 3d
       0.061294887 0.03623031 -0.0077990186 0.031576235
000160 ec b7 1d 3c 1a 5b d8 bc ff 08 47 bd 2e d2 1e 3d
       0.00962637 -0.026410628 -0.048592564 0.03877466
000170 34 d2 e7 bc dc 91 86 3c af c1 03 bd 32 e7 65 3c
       -0.028298475 0.016426973 -0.032167133 0.014032172
000180 f7 ba f1 3c da 10 16 3d 49 e5 b0 bc f2 c0 e8 3c
       0.029508097 0.036637165 -0.021593707 0.028412316
000190 8e 6e 10 3c 8f e7 0c bc 76 15 6f 3c fd dc c0 3c
       0.008815421 -0.00860013 0.014592519 0.023542875
0001a0 62 2e 65 3d 03 7b f8 3c 09 22 ac bc e3 9a 0b bb
       0.055952437 0.030332094 -0.021012323 -0.0021302036
0001b0 3a 56 b5 bc b0 7e e8 bc ad f6 98 3c 30 f4 0f 3d
       -0.022135843 -0.028380722 0.018672312 0.035144985
0001c0 0e a5 4e 3c 0c 55 bb bc f1 af 14 3d 83 4e 63 3d
       0.012612594 -0.022867702 0.036300603 0.055494796
0001d0 70 d5 88 3c 5b 7c 48 3d ad 1d 2c 3c f5 7b 98 bc
       0.016703337 0.04894672 0.010505122 -0.018613795
0001e0 97 ad 9f bb 11 3c 81 bb ea a6 2e bb c8 ca 3b 38
       -0.0048729884 -0.003943928 -0.0026649782 4.477313e-05
0001f0 25 02 13 bd f9 1e 70 bd ad ef e3 bc 23 ed a4 3c
       -0.035890717 -0.058623288 -0.027824247 0.020132607
000200 9e c0 15 bd 5b be 24 bd 46 47 27 3d ff f7 42 bd
       -0.036560647 -0.0402206 0.040839456 -0.04759979
000210 22 99 92 3c 14 3f 74 3d 68 9b c7 bb b3 5f 76 bb
       0.017895285 0.05963047 -0.006091524 -0.0037593662
000220 e4 84 3b 3d 2b 7b 16 3d d9 93 32 3d 06 84 02 bb
       0.04578103 0.036738556 0.04359803 -0.0019915118
000230 a0 08 18 3d 05 8e 8d 3c 42 b9 dc 39 c3 0f 36 3d
       0.0371176 0.017279634 0.00042099698 0.044448625
000240 23 eb 94 3c 3b 88 1c 3d 02 77 02 bd bf ca 1f 3c
       0.018178528 0.038215857 -0.031851776 0.009752928
000250 93 36 20 bd 65 01 0a 3c 2e f4 ce 3c 35 f4 23 3d
       -0.039114546 0.008423184 0.025262918 0.040027816
000260 de 03 10 3d 9f ae 92 bc 8e 0d be 3c e5 58 88 bd
       0.035159938 -0.017905531 0.023199823 -0.0665758
000270 ad aa 00 3d 61 cf 8b 3c a9 88 8d bc 69 70 79 3c
       0.03141277 0.01706666 -0.017277079 0.015224555
000280 e0 0f d2 3c b7 99 3e bd 5c 7a 3c 3d 87 78 87 3c
       0.025642335 -0.046533313 0.04601513 0.016536964
000290 06 72 47 3d 6c e1 fc 3b e7 4b 61 3c 0c 8e a0 3c
       0.048692726 0.007717302 0.013751007 0.019598983
0002a0 64 58 39 3d 58 52 32 bd 51 9f ba 3c 12 26 a1 3c
       0.04525031 -0.04353556 0.022781046 0.019671474
0002b0 9e c9 3e bc d4 0f 30 bd d6 1c 34 3d 2c 80 05 3d
       -0.011644749 -0.042983845 0.043972813 0.032592937
0002c0 26 1c 25 bc 02 38 00 3c d3 c7 90 bc ca 0b cd bc
       -0.010077512 0.007825853 -0.017673409 -0.025030036
0002d0 e6 a1 82 3d 47 bd 01 3d 46 06 5a 3c c4 c9 01 3d
       0.06378536 0.03167465 0.01330716 0.03168656
0002e0 b9 ca 11 3d 4a dc fd 3c 82 2c c6 3c 73 58 0b bd
       0.035593722 0.030988831 0.024191145 -0.0340199
0002f0 d5 81 8c bc e2 7e ef 3c 4a f4 27 ba 1b 0f 2d bb
       -0.017151752 0.029235307 -0.00064069463 -0.0026406709
000300 5a d3 c0 bc 8e ed 8c bc 52 0b 50 bc c2 92 05 3d
       -0.02353828 -0.017203119 -0.0126980115 0.032610662
000310 53 c0 92 bc e7 85 1b 3d 50 5e 1d bd b7 75 5a bc
       -0.017913973 0.037969496 -0.03842002 -0.0133337295
000320 85 3d 2e 3d 4e 1f 42 bc 71 9c 84 3c d2 ad 9f 3b
       0.04253914 -0.011848284 0.016187878 0.004873016
000330 99 bd cd 3c 1e 87 8c bc 9f c2 e7 bc ce 8b 9c bc
       0.025114821 -0.017154273 -0.028291045 -0.019109633
000340 d1 4e 71 3c b2 46 ca bc 65 1a 21 bd d7 92 90 bc
       0.014728264 -0.024691913 -0.039331812 -0.017648144
000350 31 bb f1 bc 24 f0 1e 3d 4f 2e d9 bb 85 3b b1 3c
       -0.029508205 0.038803235 -0.006627835 0.021634826
000360 f3 b4 21 3d 2d a6 4a bd 6f af 69 bb 5e 76 4c ba
       0.039479207 -0.049474884 -0.0035657545 -0.00077996205
000370 f5 21 22 3d 35 d8 4a 3b aa 65 8d 3c 63 72 4a bd
       0.039583165 0.0030951623 0.017260391 -0.049425494
000380 fa 65 45 3d 8a d2 35 bd f3 0d 06 3d 9b 91 36 bd
       0.048192956 -0.04439024 0.032728147 -0.044572454
000390 d3 d8 97 3a 0c 1c 60 bc e4 16 a6 3c 6b 29 13 bd
       0.0011585004 -0.013678562 0.020274587 -0.03592817
0003a0 a2 70 51 3d c0 4a 69 3d 8a 61 14 3d e2 e9 87 3d
       0.051132806 0.056956053 0.036225833 0.066364065
0003b0 68 e2 75 3d 1c d5 66 3a 2f 84 c9 3c 1e d3 93 bb
       0.06003037 0.00088055595 0.024599163 -0.004511251
0003c0 f0 b6 9a 39 80 2c 2f bd 0c bb e1 bc b9 af 9b bc
       0.00029509468 -0.042767048 -0.027555011 -0.01900469
0003d0 71 4b a1 bc 6a df ab bc b7 90 01 bd 19 45 2f ba
       -0.019689294 -0.020980556 -0.03163215 -0.00066860166
0003e0 58 40 24 bc 8c d4 e5 3c f5 ce ef 3c 4d 7e c2 bb
       -0.010025106 0.028055452 0.02927349 -0.0059354664
0003f0 ae 6d 0e 3d c4 64 e4 bc 17 0f 71 bc a7 bf 70 3d
       0.034772567 -0.02788008 -0.01471307 0.058776524

conv4.bias f4 [128]
000000 6c 3c 23 bd ea 7d 22 bc 08 a4 84 bc 56 d5 2f bd
       -0.039852545 -0.009917716 -0.016191497 -0.042928062
000010 7a 22 bb 3c 9f 74 74 bc b1 52 02 3d 49 38 21 bd
       0.022843588 -0.014920383 0.031817142 -0.03936032
000020 78 59 de bc c1 e7 01 3d 10 bf 5d 3c 93 f4 13 3d
       -0.027142271 0.03171516 0.013534322 0.036121916
000030 9f b8 94 bc 4e 15 4f bd 18 78 b7 3c 37 82 7c bc
       -0.01815444 -0.050557427 0.022396132 -0.015411905
000040 58 aa 58 bb 09 e0 0c bd 71 d7 c5 3c 25 48 57 bb
       -0.0033060517 -0.034393344 0.024150582 -0.0032849398
000050 f6 25 5c 3c 91 1f 37 3d 3a db b1 3b b7 73 30 3d
       0.013436785 0.04470784 0.005427745 0.043079104
000060 28 18 a2 bc 7f 62 68 3b bd 2f 40 bc 7a 4f 12 bd
       -0.01978691 0.00354591 -0.011730132 -0.035720326
000070 1b d1 3c 3c cc 5d 2c bd 4d 27 88 3c 64 60 cd bc
       0.011524464 -0.04208164 0.016620303 -0.025070377
000080 14 e5 e8 3c e5 0f 3d bd 14 cf d2 bc 6d bc 09 bd
       0.028429545 -0.046157736 -0.025733508 -0.033626962
000090 fe e5 0f bb f7 9a 4d 3d 40 33 12 3d b4 32 4c 3d
       -0.0021957154 0.050196614 0.035693407 0.04985304
0000a0 fb c2 8d 3b 3e 92 c7 3b 6e 52 2a bc 55 ab 8c 3c
       0.004326222 0.0060904315 -0.010395629 0.017171541
0000b0 1b 65 41 3c 94 c8 31 3b 19 f5 a1 3c a7 e4 a0 3c
       0.011803891 0.002712761 0.019770192 0.01964028
0000c0 81 16 ab 3c 4b c7 50 bc f9 f7 24 bd f0 6a 85 ba
       0.020884754 -0.012742828 -0.040275548 -0.0010178965
0000d0 91 b0 07 bd ef 6c 1c 3d c1 6c c5 bc 1e 55 88 3c
       -0.03312737 0.038189825 -0.02409971 0.01664215
0000e0 3c 86 b5 bc 5f 84 73 3c 6c 37 bb 3c 41 a6 37 bd
       -0.022158735 0.014863103 0.022853576 -0.044836286
0000f0 5e f3 8d 3c ca 0b 26 3b 6b 2d a2 bc bf 8e 95 3b
       0.01732796 0.0025336617 -0.019797048 0.004564136
000100 8c 45 bb bc e6 e2 fa bc 5f 64 3f bc 1c 9a 66 3c
       -0.022860311 -0.030625772 -0.011681645 0.0140748285
000110 01 a5 21 bd d5 6a 86 bb 1d ec 4e b9 45 37 49 3d
       -0.039464 -0.004102091 -0.0001973365 0.049124975
000120 94 67 c8 3c f7 25 a0 3c 54 a4 31 bd 89 c2 e2 bc
       0.024463452 0.019549353 -0.043369606 -0.027680652
000130 2e c3 15 bd ec ee 39 3d 60 c1 d9 bb f6 68 4f bc
       -0.03656309 0.04539387 -0.0066453665 -0.012659302
000140 86 7a ec 3c f3 f0 a2 3b fb b4 3e 3d cc 85 2f 3c
       0.028867017 0.004972571 0.046559315 0.010713052
000150 47 b0 c9 bc 28 e0 8a bc 62 65 29 3d f7 23 96 bc
       -0.024620188 -0.01695259 0.04135645 -0.018327696
000160 6b ce 07 3d 0d 4d 3a bd d4 ab 41 3c 20 88 d4 bc
       0.03315584 -0.045483638 0.011820752 -0.025943816
000170 ff dc 1c bd f2 fc f9 3a 28 e6 5d bc d7 1d b9 bc
       -0.038296696 0.0019072576 -0.013543643 -0.022597237
000180 c0 6a dd 3c d9 26 0b bc 9b 5c 0f bd 03 d3 7c 3b
       0.027028441 -0.008493149 -0.035000425 0.0038577921
000190 61 b5 ac bc fb bc 05 bc 8f 89 9d bc 26 b6 2e 3d
       -0.021082582 -0.008162732 -0.019230632 0.04265418
0001a0 28 50 f4 3b 63 1c 36 bd 85 8b a4 bb 2e 08 5d bb
       0.0074558444 -0.044460665 -0.005021515 -0.00337268
0001b0 22 47 49 3c 87 ba 07 bd 63 89 18 bd 1a 4d c4 3c
       0.012285026 -0.03313687 -0.037240397 0.023962546
0001c0 7a 70 26 bd b5 54 fe bc 05 84 d8 b9 9e 58 cb bb
       -0.04063461 -0.03104625 -0.00041297093 -0.0062056324
0001d0 fd 21 d8 bc 3a e1 75 bc ab 22 24 bd 9b d2 4b bd
       -0.026383394 -0.0150073115 -0.040072124 -0.049761396
0001e0 08 43 3b 3d cd 03 c5 3c 21 cc 5b 3c d4 86 1f 3d
       0.045718223 0.024049664 0.013415367 0.03894694
0001f0 98 a9 fb ba 57 ce 3c 3c 16 99 1a 3c 9a ad a5 3b
       -0.0019200323 0.011523805 0.009435913 0.0050560953

bn1.weight f4 [64]
000000 27 bf 80 3f a4 02 80 3f 01 48 7f 3f df e9 7e 3f
       1.0058335 1.0000806 0.99719244 0.9957561
000010 fe 17 80 3f 3c 15 81 3f e0 4f 81 3f b3 e8 7b 3f
       1.0007322 1.0084605 1.0102501 0.98401946
000020 71 ab 81 3f 69 b3 7f 3f 2a 19 80 3f 1b 0d 7e 3f
       1.0130445 0.99883133 1.000768 0.9923875
000030 63 6b 82 3f 43 4e 7c 3f 47 75 7c 3f 53 4b 7f 3f
       1.0189022 0.9855692 0.9861645 0.9972431
000040 e1 ed 80 3f 8b b8 7f 3f 0d ac 7e 3f 42 67 80 3f
       1.0072595 0.99890965 0.9948128 1.0031512
000050 f8 a5 7f 3f fc 5e 7f 3f 20 d1 80 3f ba 52 80 3f
       0.99862623 0.9975431 1.006382 1.0025246
000060 ef 20 80 3f 2e f6 7c 3f ee ac 7c 3f fa b0 7d 3f
       1.001005 0.9881314 0.9870137 0.9909817
000070 46 a7 7b 3f 0e c0 7f 3f df d6 7d 3f 83 9e 7d 3f
       0.98302114 0.9990243 0.9915599 0.99069995
000080 98 90 81 3f f8 7b 80 3f 65 ab 85 3f 25 9b 82 3f
       1.0122252 1.0037832 1.044293 1.0203596
000090 9e 21 7c 3f de 93 7a 3f 22 25 80 3f ba 8c 80 3f
       0.98488796 0.9788188 1.0011332 1.0042946
0000a0 3d 8b 83 3f 84 04 83 3f 86 55 7a 3f 43 68 7c 3f
       1.0276867 1.0235753 0.9778675 0.9859659
0000b0 28 f7 7e 3f 2f 40 81 3f 52 4a 7f 3f 31 50 7d 3f
       0.9959588 1.0097712 0.9972278 0.9895049
0000c0 fa 70 7d 3f 10 3b 80 3f 2e 6c 81 3f 4f 81 80 3f
       0.99000514 1.0018024 1.0111139 1.0039462
0000d0 dc 06 7f 3f 65 3e 81 3f b5 72 82 3f 7a 58 7d 3f
       0.9961984 1.0097166 1.0191256 0.9896313
0000e0 f7 72 81 3f f2 05 7f 3f 41 dd 7e 3f db 17 81 3f
       1.011321 0.99618447 0.99556357 1.0085405
0000f0 08 50 81 3f 1d bb 7d 3f e7 9f 7e 3f d6 0c 83 3f
       1.0102549 0.9911364 0.9946274 1.0238292

bn1.bias f4 [64]
000000 c7 c0 48 bc 3e f3 5d 3b 3a 69 a5 ba f0 93 e9 3a
       -0.012252993 0.0033866907 -0.0012619861 0.0017820578
000010 a8 cb 12 3c 42 f6 35 ba bc 26 1a bc 8e cb 36 3c
       0.008959688 -0.00069412973 -0.009408649 0.01115693
000020 d0 0e 15 3c 36 c5 4f bc 26 3e 87 3b aa c3 85 bb
       0.00909777 -0.012681296 0.0041272817 -0.004082163
000030 d9 67 74 3c b6 28 27 bc 7f ec 69 3c 67 f8 6f 3b
       0.014917337 -0.010202577 0.0142775765 0.0036616565
000040 35 77 23 bc 16 5c a8 bb 75 67 bb 3b 80 7c dc bc
       -0.009977152 -0.0051379306 0.00571912 -0.026914835
000050 01 55 42 3b 2a 3c aa 3b fb fa 4a bb 6f 84 91 3c
       0.0029652717 0.0051951604 -0.003097235 0.017763345
000060 aa 9e 40 bc b5 97 ac bc 5f f9 07 bc be e2 a8 bb
       -0.011756578 -0.021068433 -0.008299201 -0.005153983
000070 d5 04 50 ba 5b 97 9e bb 79 e6 74 bb ee 09 c2 3b
       -0.00079352903 -0.0048398203 -0.0037368818 0.005921594
000080 90 b5 88 ba 25 1c 32 3c a7 70 00 3d a1 12 ee 3b
       -0.0010430086 0.010870968 0.031357434 0.0072654043
000090 8b 83 ad ba 0e 09 29 bd 9a 47 b7 3b 1f cd 23 bc
       -0.0013238055 -0.0412684 0.0055932524 -0.009997635
0000a0 3f f1 65 3c 61 7b fd 3b 75 35 22 3b 5b 22 1b bc
       0.014034568 0.007735655 0.00247511 -0.00946864
0000b0 66 9b e7 bb a8 95 84 38 c5 16 73 3c 1c d3 b0 bc
       -0.0070680855 6.322126e-05 0.014836972 -0.02158504
0000c0 62 c6 93 bb 87 ca e5 bc a8 20 32 b8 ba 82 b5 bb
       -0.004509733 -0.028050674 -4.246892e-05 -0.0055392655
0000d0 fc a0 0b 3d a5 75 56 3c 5a 0f 80 3c a4 29 77 3b
       0.034089074 0.013089572 0.01563232 0.0037714029
0000e0 6d f8 23 bb 88 16 86 bb 48 3b 54 bc 9d 98 b9 3b
       -0.00250199 -0.0040920414 -0.012953587 0.005663945
0000f0 3a bb aa bb af 6c dc 3b d3 19 08 3c ef f8 b4 bb
       -0.0052103074 0.0067268233 0.008306938 -0.0055228393

bn1.running_mean f4 [64]
000000 11 e2 b8 3e 9f bc fa 3e 29 16 c3 bd aa c8 1e be
       0.36109975 0.4897203 -0.09525711 -0.15506235
000010 99 d2 a1 bb 04 4c 54 bd 6f 64 12 3e 6e 9c 11 3e
       -0.0049384353 -0.051830307 0.14296125 0.1421983
000020 b8 21 03 bf e6 2a 37 be b5 d7 f8 3e 2e bd 4f 3e
       -0.51223326 -0.17887458 0.4860207 0.2028701
000030 02 bb 59 bd 59 98 b1 be f8 52 bd be b4 51 09 bf
       -0.05315686 -0.34686545 -0.36977363 -0.53640294
000040 0a b8 0f be ae ae 2e 3e 42 9a bb 3e 19 61 81 3e
       -0.14035049 0.17058823 0.36641127 0.25269392
000050 1a 97 05 bf c1 b1 a8 be 6d 97 60 bd ef de 04 3f
       -0.5218369 -0.32948115 -0.05483191 0.5190267
000060 7e 82 0f 3e 69 13 1c be cb 65 72 3e 72 eb 62 be
       0.14014623 -0.1524178 0.23671643 -0.22160128
000070 8a ff c4 be 21 7f d2 3e ea 4b 90 be b9 a0 93 bd
       -0.3847621 0.41112617 -0.28182918 -0.0720839
000080 28 44 15 bf a5 d9 c1 3e 59 6b df 3e 2a 9b 84 3e
       -0.58307123 0.37861362 0.43636587 0.2589963
000090 2e fa d8 be 6c d2 0c bf 6e 80 e6 be 16 fe ea 3e
       -0.42378372 -0.5500858 -0.4501986 0.45896977
0000a0 4c 1c 8e 3e 54 11 00 3f ac 7f 90 3e ec 0d f8 3d
       0.27755964 0.5002644 0.28222406 0.121120304
0000b0 a3 a1 33 bb b6 aa c8 be a5 b6 fb be bc 4f 05 bf
       -0.0027409575 -0.39192742 -0.49162784 -0.5207479
0000c0 a2 6b 4f 3e ea c1 88 be 83 62 cb bd e4 0b a5 be
       0.20255902 -0.26710445 -0.09930899 -0.32235634
0000d0 39 c6 ca bd 05 34 d5 be fc 29 b7 be b7 04 39 3e
       -0.09901089 -0.4164125 -0.3577422 0.18068205
0000e0 0d 04 08 be bd 68 b8 3e dc 8e 18 be 20 dd cd be
       -0.13282795 0.3601741 -0.14898247 -0.40207767
0000f0 9d d5 df bd af d9 9a be 48 cb 25 be 7c 9b 06 bf
       -0.109294154 -0.30244204 -0.16190827 -0.52581

bn1.running_var f4 [64]
000000 8d c0 9c 3b 11 2e f3 3a 6a e9 61 3c a5 ac b5 3b
       0.004783696 0.0018553158 0.01378856 0.0055442625
000010 f0 5d 8b 3b ca c4 78 3b b7 fe 6b 3b 88 bc ef 3b
       0.0042531416 0.0037959092 0.0036009976 0.007316176
000020 e5 ac 6d 3b bf 7b 78 3c 75 0a 48 3c 12 3a c6 3b
       0.0036266383 0.015166222 0.012209524 0.006049403
000030 14 95 82 3b 48 26 ae 3a b0 a3 2a 3c 55 b3 2d 3b
       0.0039850567 0.0013286555 0.010415003 0.0026504595
000040 8f 4a 96 3c aa 4d 43 3c 0c 69 40 3b af 41 1f 3c
       0.0183461 0.011920372 0.0029359488 0.00972025
000050 82 01 5f 3b c1 96 81 3a ac 06 12 3c e8 ca e9 3b
       0.0034027998 0.0009886847 0.0089127235 0.007134784
000060 f4 c8 b1 3c d2 93 a2 3b cf 79 df 3b 78 f3 77 3b
       0.021702267 0.004961469 0.0068199406 0.0037834328
000070 62 40 bd 3b 65 81 4e 3b 9e db ae 3b 67 ac 09 3c
       0.0057754973 0.003151023 0.005336239 0.00840292
000080 63 f5 71 3b 1e 3d 6b 3b e4 92 35 3b 17 ad 28 3c
       0.0036919944 0.0035894583 0.0027705962 0.010295174
000090 71 69 88 3c 47 7e 51 3c 33 60 ab 3a 9a 48 05 3c
       0.01665184 0.0127864545 0.0013074934 0.008134985
0000a0 02 d8 6a 3a d6 d4 18 3c 76 bf 52 3c 2d 00 c9 3b
       0.0008958579 0.009328088 0.012863031 0.006134054
0000b0 42 98 85 3b c9 b5 ac 3c b6 8b 25 3b 55 8e 34 3c
       0.0040769884 0.021082776 0.0025260276 0.011020263
0000c0 20 08 82 3b fb 6c 51 3c 45 1e b7 3a 58 db 3c 3c
       0.0039682537 0.012782331 0.0013970813 0.011526905
0000d0 ad 4b 3e 3b 6c d3 bf 3b f7 27 c0 3b fd 64 3b 3c
       0.0029036805 0.005854061 0.005864139 0.011437652
0000e0 5d 49 d0 3b a6 a5 14 3b ca 34 2a 3c 43 bb 6e 3c
       0.006356402 0.0022681742 0.010388562 0.014571014
0000f0 ef 33 11 3b 04 47 cc 3b 44 c1 e2 3a f7 f6 c0 3a
       0.00221562 0.0062340517 0.0017300029 0.0014722039

bn2.weight f4 [64]
000000 63 c1 7f 3f b3 64 80 3f fb 28 7e 3f ef cc 7d 3f
       0.9990446 1.0030731 0.9928128 0.9914083
000010 09 81 82 3f 21 a5 7a 3f 95 88 80 3f 05 2d 7b 3f
       1.0195628 0.97908217 1.0041682 0.9811557
000020 c8 ca 7d 3f 9b bd 80 3f 21 1d 82 3f bd f0 80 3f
       0.99137545 1.0057863 1.016514 1.0073467
000030 c1 fc 7e 3f 0b 5b 81 3f aa 7f 7f 3f 00 60 7e 3f
       0.9960442 1.0105909 0.99804175 0.99365234
000040 f0 fd 83 3f a4 d0 7d 3f 1a 45 7e 3f 1a c0 7c 3f
       1.031187 0.99146485 0.9932419 0.98730624
000050 4e 71 7d 3f b4 44 80 3f ac e4 79 3f 27 a5 7e 3f
       0.99001014 1.0020967 0.9761455 0.9947075
000060 c6 3b 81 3f 67 85 80 3f 88 04 85 3f b0 ad 82 3f
       1.0096366 1.0040711 1.0392008 1.0209255
000070 d1 ac 7e 3f 31 4a 80 3f 3c 1c 81 3f ec 7b 81 3f
       0.99482447 1.0022641 1.0086741 1.0115943
000080 d8 3c 7b 3f 79 68 7a 3f 30 55 79 3f f0 66 7f 3f
       0.98139715 0.9781566 0.9739561 0.99766445
000090 26 2c 83 3f f5 ae 80 3f c6 47 7d 3f 72 85 7e 3f
       1.0247848 1.0053393 0.9893764 0.9942237
0000a0 b4 9d 82 3f 9b 82 7a 3f 21 de 80 3f 69 a6 80 3f
       1.0204377 0.9785554 1.0067788 1.0050784
0000b0 e9 65 7f 3f 39 17 7e 3f 3f 34 80 3f 0c fd 7f 3f
       0.9976488 0.99254185 1.0015944 0.99995494
0000c0 9a 76 80 3f 6c fd 7c 3f fb da 7e 3f 86 27 7e 3f
       1.0036194 0.9882419 0.9955289 0.9927906
0000d0 40 b8 80 3f 63 af 7f 3f e0 39 7c 3f d0 45 7e 3f
       1.0056229 0.99876994 0.9852581 0.99325275
0000e0 1f 04 7e 3f 08 a1 80 3f 3b 9a 7e 3f 7f f1 7f 3f
       0.9922504 1.0049143 0.99454087 0.9997787
0000f0 d9 7c 83 3f e7 71 80 3f 52 3a 82 3f 5f 7a 7d 3f
       1.0272475 1.003476 1.0174048 0.9901485

bn2.bias f4 [64]
000000 d5 6a c2 bb c7 94 97 bc 73 fd 3f 3b 18 9f 43 bc
       -0.0059331455 -0.01850356 0.0029295355 -0.011939786
000010 d8 87 9b 3c e5 e6 0d bd 12 61 05 3c 4c 3b 08 bd
       0.018985674 -0.034644026 0.008140819 -0.033259675
000020 11 81 c6 ba 93 4e c1 bb b5 eb 4a 3c c7 74 95 3c
       -0.0015144666 -0.0058992594 0.0123852985 0.01824416
000030 7a 59 12 ba a4 e8 82 bc 93 db 1e 3b a9 90 24 3c
       -0.0005582791 -0.015980072 0.0024239763 0.010044255
000040 97 9a 94 3a 75 dc ae 3b b1 60 8b bc ea b6 b4 bc
       0.0011337575 0.005336339 -0.01701388 -0.022059876
000050 6b 0e 8e bc 0e e1 59 bc 78 3a b5 bc 01 6e 28 bb
       -0.01734086 -0.013298286 -0.022122607 -0.0025700333
000060 52 a3 01 bc 0b ba 38 3c fd ce 86 3c 04 e3 e3 3a
       -0.007912474 0.011274825 0.016456122 0.0017386382
000070 3e d7 2d 3b 54 4c de 3a 0d 99 59 3c a1 1d 11 3c
       0.0026526 0.0016960003 0.013281119 0.008857162
000080 cc d9 e3 bc 39 b5 15 bd 44 ba ea bc 9d 58 72 bb
       -0.027813815 -0.03654978 -0.028653271 -0.0036979087
000090 e5 a3 e6 3b 70 de 15 bb 71 bc 82 bc b5 e6 c0 bc
       0.0070385807 -0.0022868179 -0.015958996 -0.02354751
0000a0 bb 6e 8b 3c 75 6e d8 bc c7 4d 03 bc db a5 d8 3b
       0.017020574 -0.026419858 -0.008014149 0.0066115684
0000b0 a9 fb 14 bb 46 63 90 3b a0 5a 5e bb c3 3c 17 bc
       -0.002273301 0.0044063656 -0.0033928528 -0.009230795
0000c0 5c ea 8c ba 4e 20 0c 39 b0 dd 6e bb 4b e3 ea bb
       -0.0010750997 0.00013363475 -0.0036448054 -0.0071682087
0000d0 43 80 e8 3b 3c a9 42 bc 97 69 c7 bb 6b 40 11 bc
       0.007095368 -0.011881169 -0.0060855853 -0.008865456
0000e0 19 07 2b bc 1e d8 e3 bb 47 92 ba ba fe ae 09 ba
       -0.010438704 -0.0069532534 -0.0014234268 -0.0005252211
0000f0 59 bb 46 3c 35 aa ce 3b 10 0b 76 3b 3d 74 79 bc
       0.012129628 0.0063069114 0.0037543215 -0.015225467

bn2.running_mean f4 [64]
000000 80 00 92 be 94 1e 8e be 6a 5e 28 be 28 44 17 bf
       -0.28516006 -0.27757704 -0.16442266 -0.59088373
000010 b7 53 0f 3d 7a c2 74 3d 55 85 25 3d 6b df 92 be
       0.034991946 0.05975578 0.04041036 -0.2868608
000020 86 a8 66 be 06 da 0c 3e 84 38 56 bf 21 bf 9c be
       -0.22525224 0.13755044 -0.83679986 -0.3061457
000030 a2 ba 91 3e 20 72 14 3e 25 9f ba 3e 52 a0 a7 bc
       0.28462702 0.1449666 0.36449543 -0.020462189
000040 80 65 fb bd c0 13 8e be a8 a4 91 be be 1d e9 3e
       -0.12275219 -0.27749443 -0.28445935 0.45530504
000050 78 24 37 be 05 80 b8 be 35 e3 97 be 01 80 05 3f
       -0.17885005 -0.3603517 -0.29665533 0.52148443
000060 2c 00 37 3e 1e 8d 79 3d 1c 85 da 3d 03 5f bf 3e
       0.1787116 0.060925595 0.1066992 0.37377176
000070 9d c1 44 be 86 47 a5 be 86 1a f3 be 5d 01 19 bf
       -0.19214483 -0.3228113 -0.47481173 -0.59767705
000080 e0 dd a1 3e 43 22 b9 3e be 6f a6 be 88 87 f0 be
       0.3161459 0.36158952 -0.32507128 -0.46978402
000090 02 4d c9 3d 61 3f 78 3d da 87 e0 bd 24 09 0f bf
       0.09829141 0.060607318 -0.10963412 -0.5587332
0000a0 86 42 9e be c8 47 3b 3e 79 3d 06 be 20 6c 8a be
       -0.30910128 0.18289101 -0.13109387 -0.27035618
0000b0 22 b8 a4 be e8 7f bb bd 14 89 b0 3e fb f4 cd be
       -0.32171732 -0.091552556 0.34479582 -0.40225968
0000c0 16 02 48 3e f4 68 7e be 1a 1d c5 be d0 02 6d 3e
       0.19532046 -0.24844724 -0.38498765 0.23145604
0000d0 a5 16 f6 be 9d 1e 95 3d 98 e6 00 bf 37 55 21 be
       -0.4806415 0.0728123 -0.5035186 -0.15755163
0000e0 65 d8 93 bd 0f 9f fe be 33 76 04 3f 17 c0 13 be
       -0.07219008 -0.49730727 0.5174286 -0.14428745
0000f0 69 99 b5 be 42 e1 5f be df d7 33 bf b0 94 ac bd
       -0.35468605 -0.21863273 -0.7025127 -0.084267974
